…
2018-10-08 15:58:07.842038: I tensorflow/core/common_runtime/gpu/gpu_device.cc:1120] Creating TensorFlow device (/device:GPU:0) -> (device: 0, name: Tesla P4, pci bus id: 0000:04:00.0, compute capability: 6.1)
Loading VGG16 Weights ...
Adding Average Pooling Layer and Softmax Output Layer ...
(None, 4, 4, 128)
(None, 4, 4, 128)
__________________________________________________________________________________________________
Layer (type)                    Output Shape         Param #     Connected to                     
==================================================================================================
input_1 (InputLayer)            (None, 128, 128, 3)  0                                            
__________________________________________________________________________________________________
block1_conv1 (Conv2D)           (None, 128, 128, 64) 1792        input_1[0][0]                    
__________________________________________________________________________________________________
block1_conv2 (Conv2D)           (None, 128, 128, 64) 36928       block1_conv1[0][0]               
__________________________________________________________________________________________________
block1_pool (MaxPooling2D)      (None, 64, 64, 64)   0           block1_conv2[0][0]               
__________________________________________________________________________________________________
block2_conv1 (Conv2D)           (None, 64, 64, 128)  73856       block1_pool[0][0]                
__________________________________________________________________________________________________
block2_conv2 (Conv2D)           (None, 64, 64, 128)  147584      block2_conv1[0][0]               
__________________________________________________________________________________________________
block2_pool (MaxPooling2D)      (None, 32, 32, 128)  0           block2_conv2[0][0]               
__________________________________________________________________________________________________
block3_conv1 (Conv2D)           (None, 32, 32, 256)  295168      block2_pool[0][0]                
__________________________________________________________________________________________________
block3_conv2 (Conv2D)           (None, 32, 32, 256)  590080      block3_conv1[0][0]               
__________________________________________________________________________________________________
block3_conv3 (Conv2D)           (None, 32, 32, 256)  590080      block3_conv2[0][0]               
__________________________________________________________________________________________________
block3_pool (MaxPooling2D)      (None, 16, 16, 256)  0           block3_conv3[0][0]               
__________________________________________________________________________________________________
block4_conv1 (Conv2D)           (None, 16, 16, 512)  1180160     block3_pool[0][0]                
__________________________________________________________________________________________________
block4_conv2 (Conv2D)           (None, 16, 16, 512)  2359808     block4_conv1[0][0]               
__________________________________________________________________________________________________
block4_conv3 (Conv2D)           (None, 16, 16, 512)  2359808     block4_conv2[0][0]               
__________________________________________________________________________________________________
block4_pool (MaxPooling2D)      (None, 8, 8, 512)    0           block4_conv3[0][0]               
__________________________________________________________________________________________________
block5_conv1 (Conv2D)           (None, 8, 8, 512)    2359808     block4_pool[0][0]                
__________________________________________________________________________________________________
block5_conv2 (Conv2D)           (None, 8, 8, 512)    2359808     block5_conv1[0][0]               
__________________________________________________________________________________________________
block5_conv3 (Conv2D)           (None, 8, 8, 512)    2359808     block5_conv2[0][0]               
__________________________________________________________________________________________________
block5_pool (MaxPooling2D)      (None, 4, 4, 512)    0           block5_conv3[0][0]               
__________________________________________________________________________________________________
conv2d_1 (Conv2D)               (None, 4, 4, 128)    65664       block5_pool[0][0]                
__________________________________________________________________________________________________
conv2d_2 (Conv2D)               (None, 4, 4, 128)    16512       conv2d_1[0][0]                   
__________________________________________________________________________________________________
lambda_1 (Lambda)               (None, 4, 4, 128)    0           conv2d_2[0][0]                   
__________________________________________________________________________________________________
reshape_1 (Reshape)             (None, 16, 128)      0           conv2d_2[0][0]                   
__________________________________________________________________________________________________
reshape_2 (Reshape)             (None, 16, 128)      0           lambda_1[0][0]                   
__________________________________________________________________________________________________
bidirectional_1 (Bidirectional) (None, 16, 256)      264192      reshape_1[0][0]                  
__________________________________________________________________________________________________
bidirectional_2 (Bidirectional) (None, 16, 256)      264192      reshape_2[0][0]                  
__________________________________________________________________________________________________
add_1 (Add)                     (None, 16, 256)      0           bidirectional_1[0][0]            
                                                                 bidirectional_2[0][0]            
__________________________________________________________________________________________________
reshape_3 (Reshape)             (None, 4, 4, 256)    0           add_1[0][0]                      
__________________________________________________________________________________________________
conv2d_3 (Conv2D)               (None, 4, 4, 128)    32896       reshape_3[0][0]                  
__________________________________________________________________________________________________
conv2d_4 (Conv2D)               (None, 4, 4, 128)    16512       conv2d_3[0][0]                   
__________________________________________________________________________________________________
lambda_2 (Lambda)               (None, 4, 4, 128)    0           conv2d_4[0][0]                   
__________________________________________________________________________________________________
reshape_4 (Reshape)             (None, 16, 128)      0           conv2d_4[0][0]                   
__________________________________________________________________________________________________
reshape_5 (Reshape)             (None, 16, 128)      0           lambda_2[0][0]                   
__________________________________________________________________________________________________
bidirectional_3 (Bidirectional) (None, 16, 256)      264192      reshape_4[0][0]                  
__________________________________________________________________________________________________
bidirectional_4 (Bidirectional) (None, 16, 256)      264192      reshape_5[0][0]                  
__________________________________________________________________________________________________
add_2 (Add)                     (None, 16, 256)      0           bidirectional_3[0][0]            
                                                                 bidirectional_4[0][0]            
__________________________________________________________________________________________________
reshape_6 (Reshape)             (None, 4, 4, 256)    0           add_2[0][0]                      
__________________________________________________________________________________________________
conv2d_5 (Conv2D)               (None, 4, 4, 128)    32896       reshape_6[0][0]                  
__________________________________________________________________________________________________
flatten (Flatten)               (None, 2048)         0           conv2d_5[0][0]                   
__________________________________________________________________________________________________
predictions (Dense)             (None, 10)           20490       flatten[0][0]                    
==================================================================================================
Total params: 15,956,426
Trainable params: 15,956,426
Non-trainable params: 0
__________________________________________________________________________________________________
Found 2843 images belonging to 10 classes.
Found 349 images belonging to 10 classes.
…
39/88 [============>.................] - ETA: 13s - loss: 1.3892 - acc: 0.5296 - top_k_categorical_accuracy: 0.9247
40/88 [============>.................] - ETA: 12s - loss: 1.3855 - acc: 0.5281 - top_k_categorical_accuracy: 0.9242Loading VGG16 Weights ...
Adding Average Pooling Layer and Softmax Output Layer ...
(None, 4, 4, 128)
(None, 4, 4, 128)
__________________________________________________________________________________________________
Layer (type)                    Output Shape         Param #     Connected to                     
==================================================================================================
input_1 (InputLayer)            (None, 128, 128, 3)  0                                            
__________________________________________________________________________________________________
block1_conv1 (Conv2D)           (None, 128, 128, 64) 1792        input_1[0][0]                    
__________________________________________________________________________________________________
block1_conv2 (Conv2D)           (None, 128, 128, 64) 36928       block1_conv1[0][0]               
__________________________________________________________________________________________________
block1_pool (MaxPooling2D)      (None, 64, 64, 64)   0           block1_conv2[0][0]               
__________________________________________________________________________________________________
block2_conv1 (Conv2D)           (None, 64, 64, 128)  73856       block1_pool[0][0]                
__________________________________________________________________________________________________
block2_conv2 (Conv2D)           (None, 64, 64, 128)  147584      block2_conv1[0][0]               
__________________________________________________________________________________________________
block2_pool (MaxPooling2D)      (None, 32, 32, 128)  0           block2_conv2[0][0]               
__________________________________________________________________________________________________
block3_conv1 (Conv2D)           (None, 32, 32, 256)  295168      block2_pool[0][0]                
__________________________________________________________________________________________________
block3_conv2 (Conv2D)           (None, 32, 32, 256)  590080      block3_conv1[0][0]               
__________________________________________________________________________________________________
block3_conv3 (Conv2D)           (None, 32, 32, 256)  590080      block3_conv2[0][0]               
__________________________________________________________________________________________________
block3_pool (MaxPooling2D)      (None, 16, 16, 256)  0           block3_conv3[0][0]               
__________________________________________________________________________________________________
block4_conv1 (Conv2D)           (None, 16, 16, 512)  1180160     block3_pool[0][0]                
__________________________________________________________________________________________________
block4_conv2 (Conv2D)           (None, 16, 16, 512)  2359808     block4_conv1[0][0]               
__________________________________________________________________________________________________
block4_conv3 (Conv2D)           (None, 16, 16, 512)  2359808     block4_conv2[0][0]               
__________________________________________________________________________________________________
block4_pool (MaxPooling2D)      (None, 8, 8, 512)    0           block4_conv3[0][0]               
__________________________________________________________________________________________________
block5_conv1 (Conv2D)           (None, 8, 8, 512)    2359808     block4_pool[0][0]                
__________________________________________________________________________________________________
block5_conv2 (Conv2D)           (None, 8, 8, 512)    2359808     block5_conv1[0][0]               
__________________________________________________________________________________________________
block5_conv3 (Conv2D)           (None, 8, 8, 512)    2359808     block5_conv2[0][0]               
__________________________________________________________________________________________________
block5_pool (MaxPooling2D)      (None, 4, 4, 512)    0           block5_conv3[0][0]               
__________________________________________________________________________________________________
conv2d_1 (Conv2D)               (None, 4, 4, 128)    65664       block5_pool[0][0]                
__________________________________________________________________________________________________
conv2d_2 (Conv2D)               (None, 4, 4, 128)    16512       conv2d_1[0][0]                   
__________________________________________________________________________________________________
lambda_1 (Lambda)               (None, 4, 4, 128)    0           conv2d_2[0][0]                   
__________________________________________________________________________________________________
reshape_1 (Reshape)             (None, 16, 128)      0           conv2d_2[0][0]                   
__________________________________________________________________________________________________
reshape_2 (Reshape)             (None, 16, 128)      0           lambda_1[0][0]                   
__________________________________________________________________________________________________
bidirectional_1 (Bidirectional) (None, 16, 256)      264192      reshape_1[0][0]                  
__________________________________________________________________________________________________
bidirectional_2 (Bidirectional) (None, 16, 256)      264192      reshape_2[0][0]                  
__________________________________________________________________________________________________
add_1 (Add)                     (None, 16, 256)      0           bidirectional_1[0][0]            
                                                                 bidirectional_2[0][0]            
__________________________________________________________________________________________________
reshape_3 (Reshape)             (None, 4, 4, 256)    0           add_1[0][0]                      
__________________________________________________________________________________________________
conv2d_3 (Conv2D)               (None, 4, 4, 128)    32896       reshape_3[0][0]                  
__________________________________________________________________________________________________
conv2d_4 (Conv2D)               (None, 4, 4, 128)    16512       conv2d_3[0][0]                   
__________________________________________________________________________________________________
lambda_2 (Lambda)               (None, 4, 4, 128)    0           conv2d_4[0][0]                   
__________________________________________________________________________________________________
reshape_4 (Reshape)             (None, 16, 128)      0           conv2d_4[0][0]                   
__________________________________________________________________________________________________
reshape_5 (Reshape)             (None, 16, 128)      0           lambda_2[0][0]                   
__________________________________________________________________________________________________
bidirectional_3 (Bidirectional) (None, 16, 256)      264192      reshape_4[0][0]                  
__________________________________________________________________________________________________
bidirectional_4 (Bidirectional) (None, 16, 256)      264192      reshape_5[0][0]                  
__________________________________________________________________________________________________
add_2 (Add)                     (None, 16, 256)      0           bidirectional_3[0][0]            
                                                                 bidirectional_4[0][0]            
__________________________________________________________________________________________________
reshape_6 (Reshape)             (None, 4, 4, 256)    0           add_2[0][0]                      
__________________________________________________________________________________________________
conv2d_5 (Conv2D)               (None, 4, 4, 128)    32896       reshape_6[0][0]                  
__________________________________________________________________________________________________
flatten (Flatten)               (None, 2048)         0           conv2d_5[0][0]                   
41/88 [============>.................] - ETA: 12s - loss: 1.3945 - acc: 0.5244 - top_k_categorical_accuracy: 0.9230
42/88 [=============>................] - ETA: 12s - loss: 1.3871 - acc: 0.5275 - top_k_categorical_accuracy: 0.9234
43/88 [=============>................] - ETA: 11s - loss: 1.3856 - acc: 0.5283 - top_k_categorical_accuracy: 0.9230
44/88 [==============>...............] - ETA: 11s - loss: 1.3927 - acc: 0.5270 - top_k_categorical_accuracy: 0.9212
…
